tests/data/visual/answers_error_bars_weighted.npz (npz, 1018 bytes, 3 tensors)

bc f8 [20]
000000 c6 b8 4e 4a 56 df f6 3f b0 f5 da 43 af cf 27 40
       1.4295256521832456 11.905634041288835
000010 70 55 6d 3d 7b 5b 30 40 28 f3 44 02 59 4e 42 40
       16.357349242394264 36.61209133497897
000020 1f 79 64 1b d7 74 50 40 9e 1f 6b 45 24 e9 5a 40
       65.82562908946828 107.6428388162735
000030 27 72 a7 2b 1f f9 62 40 5e 7a c0 5c cc 03 65 40
       151.7850549955776 168.11869657128676
000040 4e 63 83 f3 67 0a 71 40 ea 3b 67 fb f4 d2 71 40
       272.650378716692 285.1848100693302
000050 c8 dd 32 bf 4f e6 6c 40 68 ad 2e 00 7a f3 6d 40
       231.19723472533065 239.60864266506837
000060 f8 e9 b5 e1 6b 54 64 40 b0 c4 53 ed f9 af 5b 40
       162.63816915063921 110.74962933712482
000070 80 70 52 72 18 d8 4e 40 80 cc 27 0d a0 36 4d 40
       61.68824605012287 58.42675938075354
000080 40 e8 78 6f 7b b9 41 40 c0 a6 7e 13 7d fc 33 40
       35.44907945064233 19.986283510609383
000090 00 64 41 62 33 81 0d 40 00 c8 8e 2f 69 f1 ff 3f
       3.6880862880902896 1.9964382035946073

be f8 [21]
000000 0b 8f d8 ed bf 3c 09 c0 87 73 25 31 4a ab 06 c0
       -3.154662950679158 -2.833637603717253
000010 02 58 72 74 d4 19 04 c0 7e 3c bf b7 5e 88 01 c0
       -2.5126122567553475 -2.1915869097934424
000020 f4 41 18 f6 d1 ed fd bf ec 0a b2 7c e6 ca f8 bf
       -1.8705615628315373 -1.5495362158696322
000030 e3 d3 4b 03 fb a7 f3 bf b4 39 cb 13 1f 0a ed bf
       -1.2285108689077269 -0.9074855219458215
000040 a4 cb fe 20 48 c4 e2 bf 28 bb 64 5c e2 fc d0 bf
       -0.5864601749839164 -0.26543482802201135
000050 c0 07 a1 49 5c 76 ac 3f 20 fd cc 6e 79 1a d8 3f
       0.05559051893989375 0.3766158659017993
000060 a0 ec 32 aa 13 53 e6 3f 5a ad 7f 4e 75 4c f0 3f
       0.6976412128637044 1.01866655982561
000070 62 e4 e5 c7 60 6f f5 3f 6a 1b 4c 41 4c 92 fa 3f
       1.339691906787515 1.6607172537494201
000080 72 52 b2 ba 37 b5 ff 3f bd 44 0c 9a 11 6c 02 40
       1.9817426007113252 2.3027679476732303
000090 41 60 bf 56 87 fd 04 40 c5 7b 72 13 fd 8e 07 40
       2.6237932946351354 2.9448186415970405
0000a0 4a 97 25 d0 72 20 0a 40
       3.265843988558946

berr f8 [20]
000000 c6 b8 4e 4a 56 df f6 3f 3d f2 a8 7a 98 d5 16 40
       1.4295256521832456 5.708589474260006
000010 8d 8a 83 f7 42 7b 1a 40 90 b0 28 84 f2 51 23 40
       6.6203726457630525 9.660053377120022
000020 92 39 2f e5 59 68 29 40 61 8a 09 dc b2 c5 30 40
       12.703810846342808 16.772260429696306
000030 a0 9a 24 fe 90 7f 33 40 2b 75 0c 84 d3 48 34 40
       19.498306163727307 20.28447747520583
000040 82 5a 23 6c 13 9a 3a 40 4f 63 63 14 ad e2 3a 40
       26.601858862525212 26.885453485741262
000050 13 77 59 54 f0 21 38 40 66 43 9e 92 3c d6 38 40
       24.132573386995386 24.836861766470427
000060 2f 65 1c 20 24 e7 33 40 8c 40 b1 e0 e9 e2 30 40
       19.902894980366167 16.88638119056172
000070 41 ec 6a e7 ba 6b 29 40 c9 ce 6b 89 3a df 28 40
       12.710410339166744 12.435993475351454
000080 07 94 69 42 0c 03 23 40 c1 a9 ec c1 17 05 1a 40
       9.505952906978576 6.504973440236825
000090 22 0a d7 42 a0 8f 07 40 84 c8 8e 2f 69 f1 ff 3f
       2.945129892528045 1.9964382035946366
