tests/data/visual/answers_error_bars_weighted.npz (npz, 1018 bytes, 3 tensors)

bc f8 [20]
000000 71 ef 66 cd 79 47 f4 3f 10 b3 f1 83 82 17 1f 40
       1.2674501441497024 7.772958814265408
000010 5e a8 39 d2 21 d9 26 40 26 18 1d 34 c5 9f 39 40
       11.42408616021947 25.624102837660892
000020 d0 df 5d 28 63 e7 46 40 b4 78 1e 70 12 24 52 40
       45.80771355231957 72.56362536407215
000030 d8 a8 fe 13 72 dc 5b 40 3c 85 48 11 7e 14 60 40
       111.44446277493569 128.64038910068655
000040 a8 61 33 c0 b4 da 68 40 3c ae 03 00 c2 85 69 40
       198.83456430468982 204.17993164748066
000050 50 c1 c3 90 32 1e 66 40 fc 6f ab 1b 97 c5 65 40
       176.94367254479812 174.17469581111789
000060 d0 6e 12 e2 7e 52 5e 40 60 c0 63 3c 26 a0 55 40
       121.28899432945332 86.50233373395304
000070 a0 df 54 82 21 a3 46 40 c0 5c ae b4 52 01 46 40
       45.274460116808086 44.010336480272144
000080 00 06 60 8e 1a 2e 36 40 40 26 a5 a6 c6 4b 30 40
       22.180092714732382 16.295999923057252
000090 00 1e 97 75 f1 84 02 40 00 a4 88 c0 ef 1c f0 3f
       2.3149136721365267 1.0070645829057412

be f8 [21]
000000 0b 8f d8 ed bf 3c 09 c0 87 73 25 31 4a ab 06 c0
       -3.154662950679158 -2.833637603717253
000010 02 58 72 74 d4 19 04 c0 7e 3c bf b7 5e 88 01 c0
       -2.5126122567553475 -2.1915869097934424
000020 f4 41 18 f6 d1 ed fd bf ec 0a b2 7c e6 ca f8 bf
       -1.8705615628315373 -1.5495362158696322
000030 e3 d3 4b 03 fb a7 f3 bf b4 39 cb 13 1f 0a ed bf
       -1.2285108689077269 -0.9074855219458215
000040 a4 cb fe 20 48 c4 e2 bf 28 bb 64 5c e2 fc d0 bf
       -0.5864601749839164 -0.26543482802201135
000050 c0 07 a1 49 5c 76 ac 3f 20 fd cc 6e 79 1a d8 3f
       0.05559051893989375 0.3766158659017993
000060 a0 ec 32 aa 13 53 e6 3f 5a ad 7f 4e 75 4c f0 3f
       0.6976412128637044 1.01866655982561
000070 62 e4 e5 c7 60 6f f5 3f 6a 1b 4c 41 4c 92 fa 3f
       1.339691906787515 1.6607172537494201
000080 72 52 b2 ba 37 b5 ff 3f bd 44 0c 9a 11 6c 02 40
       1.9817426007113252 2.3027679476732303
000090 41 60 bf 56 87 fd 04 40 c5 7b 72 13 fd 8e 07 40
       2.6237932946351354 2.9448186415970405
0000a0 4a 97 25 d0 72 20 0a 40
       3.265843988558946

berr f8 [20]
000000 71 ef 66 cd 79 47 f4 3f 25 c8 02 07 6d 67 0c 40
       1.2674501441497024 3.550500921986002
000010 c9 fd cf 69 28 5e 10 40 76 0d 43 1d d5 85 18 40
       4.09195103961924 6.130695779054227
000020 ed cd 3e e9 19 bb 20 40 a8 23 74 e5 a5 b4 24 40
       8.365432061115792 10.352828188349875
000030 2c b7 18 17 30 62 2a 40 4c a6 ac 50 2d 32 2c 40
       13.19177314926818 14.098001977038756
000040 6d 9b d3 71 ef 8d 31 40 9d 85 b2 9b f4 d9 31 40
       17.554434885179422 17.851388674816565
000050 50 24 75 55 99 a6 30 40 0d 32 e3 87 3b 84 30 40
       16.65077718839558 16.51653336807981
000060 80 dd 46 f5 9f 87 2b 40 55 aa 59 ef b2 59 27 40
       13.764892258549253 11.675193290420035
000070 5f 8f d0 db ee d9 20 40 5b 57 b8 19 de 8f 20 40
       8.425650471886625 8.280991367104141
000080 b5 c2 e5 69 03 39 17 40 b9 63 da 26 5e 1a 14 40
       5.805677084587548 5.0257497854990385
000090 04 84 c6 cb f0 32 fa 3f c8 a3 88 c0 ef 1c f0 3f
       1.6374366722086515 1.0070645829057288
